src/models/ja_fingerspelling_classification/ja_fingerspelling.tflite (tflite, 108480 bytes, 9 tensors)

lstm/lstm_cell_3/bias f4 [512]
0.12820949 0.08031202 0.003851836 0.19382466 0.07645979 0.006459594 0.06013525 0.11787589
0.11051147 0.08241227 0.18561198 -0.0062341983 0.10528076 0.016417252 0.06988641 0.04659642
-0.013644214 0.08666006 0.12977295 0.07419307 -0.011078772 -0.031449616 0.0118238535 0.101908155
0.032652687 0.08450275 0.069739856 -0.029676393 0.013353888 0.06436891 0.007692182 0.003984871
0.05565466 0.13835904 0.08373913 0.18087439 0.08658985 0.11442689 0.070039295 0.029027374
0.031798024 -0.037568945 0.09754898 0.05776559 0.09304826 0.13617855 0.14274646 0.06571101
0.16821495 0.046421222 0.06692269 0.055429135 0.07915542 -0.03521135 0.040456027 0.12419142
0.11241317 0.0773324 0.09328184 0.07340712 0.033948872 0.032163925 0.08694888 0.043748222
0.23689455 0.14463472 0.10650723 0.059479177 0.0968536 0.17311694 0.12770711 0.10794084
0.016799388 0.16479862 0.030685704 0.102644406 0.08374558 0.00837422 0.04646077 -0.004466286
0.025520759 0.12008691 0.07291933 0.053509034 0.05050106 0.11318042 0.005358591 0.18851389
0.13930134 0.1168547 0.012446452 -0.047889635 0.08391555 0.10510004 -0.02579496 -0.018391669
0.125942 0.0030410117 0.035303794 0.15619479 0.04983308 -0.010028172 0.05524466 0.10958529
-0.037486006 0.13956694 0.007860883 0.13651729 0.12530822 0.004773048 0.18257959 0.09769907
0.1506541 -0.00057821727 0.06272433 0.09385207 0.04236784 0.09604446 0.084370375 0.11178566
-0.010730936 0.024670914 0.09840882 0.06701762 0.06602574 0.051634554 0.091660425 0.0852052
1.0424687 1.130596 1.0192052 1.0195484 1.0573949 1.0763174 0.9744497 1.1860816
1.023456 0.96900505 1.0547395 1.087065 1.0515777 0.9947091 1.0101045 1.0521493
1.0837493 1.0336373 1.0433362 1.084163 0.93940425 0.95453286 1.0312699 1.0616257
1.0119492 0.99385685 1.0004334 0.9660619 0.9805005 0.9776067 1.0391307 0.9486483
0.9638939 1.0128736 1.0010841 1.0007809 1.0051795 1.135101 0.98304814 0.9441198
1.0642742 1.0058793 0.998905 1.0632714 1.0688442 1.0087998 1.0238682 1.0398488
1.101765 1.0691645 0.9845302 0.9947415 1.0259669 1.0284443 0.9575621 1.0018464
1.0690678 1.0115274 1.1351348 0.9879287 0.89191884 0.9439776 1.0148114 0.99895275
1.093243 1.050707 1.0672007 1.008371 0.9983249 1.1160479 1.0465442 1.0485827
1.000743 1.0537161 1.008075 1.0208175 1.0384264 1.0119313 0.9895184 0.99662954
0.9484016 1.0845406 0.9921905 1.1612303 0.9722685 1.0300616 1.055275 1.060277
1.0427752 0.95917743 0.9649342 0.98667496 0.98383003 1.0166115 0.9595648 0.9306553
1.1251462 1.0016582 1.0519743 1.1329632 0.99065363 0.96564645 1.0193509 1.0066477
0.9242063 1.036557 0.90668803 1.0957626 0.9730033 1.009869 1.0823115 1.0302837
1.0385151 1.0926559 1.0333208 1.0303562 1.0329365 0.93242896 1.0487616 1.101788
0.9592211 0.9777225 0.98117083 0.9737123 0.9862155 1.0009537 1.0022317 0.9947098
00000000: 5949 033e a17a a43d 166f 7c3b f979 463e
00000010: f396 9c3d 00ab d33b 6150 763d ea68 f13d
00000020: d653 e23d c4c7 a83d 1111 3e3e 3f48 ccbb
00000030: 709d d73d 797d 863c 9b20 8f3d e3db 3e3d
00000040: fb8b 5fbc d47a b13d 33e3 043e 89f2 973d
00000050: bd83 35bc 50d1 00bd d6b8 413c 39b5 d03d
00000060: d3be 053d c70f ad3d c5d3 8e3d e81b f3bc
00000070: 44ca 5a3c d9d3 833d b30e fc3b 8593 823b
00000080: 24f6 633d fead 0d3e 6c7f ab3d 2337 393e
00000090: 0556 b13d a558 ea3d c370 8f3d d1ca ed3c
000000a0: a53e 023d e5e1 19bd c2c7 c73d 9c9b 6c3d
000000b0: 1690 be3d 6472 0b3e 212c 123e 7e93 863d
000000c0: 8a40 2c3e 2e24 3e3d c30e 893d a909 633d
000000d0: 3d1c a23d c739 10bd 38b5 253d 1258 fe3d
000000e0: e038 e63d 7360 9e3d 8d0a bf3d 7956 963d
000000f0: f90d 0b3d 52be 033d 4112 b23d 5631 333d
00000100: 7c94 723e 201b 143e 7620 da3d 70a0 733d
00000110: 2e5b c63d 9145 313e a7c5 023e 1610 dd3d
00000120: df9e 893c f8c0 283e 9660 fb3c 3b37 d23d
00000130: cd82 ab3d 0634 093c a64d 3e3d ec59 92bb
00000140: e910 d13c 20f0 f53d bb56 953d 4a2c 5b3d
00000150: 33da 4e3d 23cb e73d 1f97 af3b c909 413e
00000160: 03a5 0e3e 8451 ef3d 34ec 4b3c ec27 44bd
00000170: eadb ab3d b13e d73d f44f d3bc 20aa 96bc
00000180: f1f6 003e b64b 473b b69a 103d 87f1 1f3e
00000190: c61d 4c3d 344d 24bc 3948 623d 416e e03d
000001a0: ed8a 19bd a3ea 0e3e efca 003c 30cb 0b3e
000001b0: cc50 003e 3b67 9c3b 25f6 3a3e 7316 c83d
000001c0: 1245 1a3e 8193 17ba 9d75 803d 8435 c03d
000001d0: e689 2d3d f5b2 c43d 60ca ac3d e1ef e43d
000001e0: cfd0 2fbc a81a ca3c 908a c93d 8940 893d
000001f0: 8138 873d c17e 533d 76b8 bb3d 1080 ae3d
00000200: 9d6f 853f 5fb7 903f 5175 823f 9080 823f
00000210: b758 873f c5c4 893f 8975 793f 86d1 973f
00000220: 9b00 833f b710 783f b401 873f f224 8b3f
00000230: 199a 863f 41a5 7e3f 1b4b 813f d4ac 863f
00000240: 4cb8 8a3f 3a4e 843f 0a8c 853f dac5 8a3f
00000250: cc7c 703f 445c 743f a700 843f 5ae3 873f
00000260: 8d87 813f 676d 7e3f 340e 803f d54f 773f
00000270: 1502 7b3f 6f44 7a3f 3c02 853f 9dda 723f
00000280: c0c1 763f d8a5 813f 8623 803f 9719 803f
00000290: b9a9 803f fd4a 913f 0ba9 7b3f d6b1 713f
000002a0: 233a 883f a7c0 803f 3db8 7f3f 4719 883f
000002b0: e3cf 883f 5a20 813f 1d0e 833f c419 853f
000002c0: a306 8d3f 62da 883f 2c0a 7c3f 61a7 7e3f
000002d0: e252 833f 10a4 833f ca22 753f 813c 803f
000002e0: 37d7 883f bb79 813f 194c 913f e5e8 7c3f
000002f0: cb54 643f 84a8 713f 57e5 813f 5ebb 7f3f
00000300: 63ef 8b3f 917d 863f 089a 883f 4d12 813f
00000310: 3892 7f3f a8da 8e3f 29f5 853f f537 863f
00000320: 5918 803f 2be0 863f 9a08 813f 26aa 823f
00000330: 28eb 843f f786 813f 1451 7d3f 1d23 7f3f
00000340: 72ca 723f 3ad2 8a3f 3200 7e3f 32a3 943f
00000350: 97e6 783f 0fd9 833f 4013 873f 28b7 873f
00000360: a879 853f a78c 753f ed05 773f bb96 7c3f
00000370: 49dc 7b3f 5320 823f 0aa6 753f 6d3f 6e3f
00000380: ca04 903f 5636 803f 18a7 863f f004 913f
00000390: 7a9b 7d3f 9b34 773f 177a 823f d5d9 803f
000003a0: c998 6c3f e6ad 843f b51c 683f f341 8c3f
000003b0: bf16 793f 6343 813f 2f89 8a3f 56e0 833f
000003c0: 10ee 843f 26dc 8b3f db43 843f b6e2 833f
000003d0: 4337 843f aab3 6e3f d23d 863f 6407 8d3f
000003e0: 848f 753f 064c 7a3f 032e 7b3f 3645 793f
000003f0: 9e78 7c3f 401f 803f 2149 803f 4da5 7e3f

dense_1/bias f4 [47]
0.018837148 0.004016338 0.012824849 0.010557646 0.035929468 0.0013673524 -0.07050599 0.013864438
-0.055951376 0.033082042 -0.059627395 0.042499617 -0.067581065 -0.05336046 0.009020347 0.09323717
0.03866413 0.0298297 0.023247818 -0.08495911 -0.044525553 -0.017373756 0.027693847 -0.009602327
0.043082472 -0.0011360723 -0.023226256 -0.022051489 0.021883672 0.0895221 -0.036505766 0.0030687503
-0.026450424 -0.076120995 -0.099377014 -0.08063675 0.07085117 -0.010714635 0.015897367 -0.016975334
-0.01721116 -0.08631748 0.0012108561 0.0028569244 -0.07918048 0.006740631 0.04408478
00000000: 5d50 9a3c 7c9b 833b 511f 523c faf9 2c3c
00000010: c72a 133d bc38 b33a 7265 90bd ab27 633c
00000020: 452d 65bd 0981 073d db3b 74bd 1414 2e3d
00000030: f167 8abd 7f90 5abd 14ca 133c 21f3 be3d
00000040: 475e 1e3d 6a5d f43c 3572 be3c 0bff adbd
00000050: 6d60 36bd 6853 8ebc 35de e23c 1453 1dbc
00000060: 3f77 303d 43e8 94ba fd44 bebc 53a5 b4bc
00000070: 6345 b33c 5d57 b73d 1287 15bd 161d 493b
00000080: 8fae d8bc 53e5 9bbd 2d86 cbbd e124 a5bd
00000090: 6b1a 913d 708c 2fbc 323b 823c db0f 8bbc
000000a0: 6bfe 8cbc 38c7 b0bd 97b5 9e3a 3d3b 3b3b
000000b0: 6029 a2bd 83e0 dc3b 3e92 343d

dense/bias f4 [64]
0.13007085 0.06826281 0.22122814 0.13535425 0.21364476 0.099119335 0.1181597 0.061215498
0.12907486 0.09141647 0.10495582 0.08367973 0.10207751 0.07820212 0.19721602 0.122701935
0.0401086 0.2194139 0.04398896 0.09163671 0.16863273 0.057300825 0.16712224 0.17273417
0.074131496 0.088718526 0.13859858 0.10643558 0.07041484 0.27865478 0.21929614 0.1471034
0.05109347 0.18893786 0.12405352 0.085236706 0.18475318 0.14528747 0.12839323 0.01708514
0.07755422 0.15097985 0.12411499 0.25753903 0.14536443 0.09891708 0.15978996 0.15103272
0.028405037 0.060366172 0.018612511 0.18701793 0.041394934 0.12826486 0.08104789 0.15922849
0.18145543 0.11193657 0.095585 0.12575343 0.06748061 0.16485678 0.10211099 0.16932409
00000000: 4b31 053e 5fcd 8b3d a189 623e 4e9a 0a3e
00000010: b1c5 5a3e 14ff ca3d b6fd f13d 1abd 7a3d
00000020: 332c 043e 8f38 bb3d 14f3 d63d 4760 ab3d
00000030: 030e d13d 6f28 a03d fff2 493e 274b fb3d
00000040: ea48 243d 0aae 603e c52d 343d 07ac bb3d
00000050: 0fae 2c3e 45b4 6a3d 1822 2b3e 3ae1 303e
00000060: 41d2 973d 0fb2 b53d c9ec 0d3e e6fa d93d
00000070: a835 903d d7ab 8e3e 2b8f 603e 46a2 163e
00000080: 6347 513d ed78 413e c60f fe3d 9590 ae3d
00000090: f02f 3d3e 3dc6 143e 8479 033e 23f6 8b3c
000000a0: bfd4 9e3d 769a 1a3e 0030 fe3d 28dc 833e
000000b0: 6ada 143e 0a95 ca3d fb9f 233e 52a8 1a3e
000000c0: aeb1 e83c 8542 773d 4479 983c a181 3f3e
000000d0: bc8d 293d dd57 033e 70fc a53d cb0c 233e
000000e0: 74cf 393e 003f e53d 12c2 c33d 82c5 003e
000000f0: 4633 8a3d 37d0 283e 911f d13d 4b63 2d3e

TensorArrayV2_1 f4 [10, 1, 128]
0.0 0.0 0.0 0.0 0.0 0.0 0.0 0.0
0.0 0.0 0.0 0.0 0.0 0.0 0.0 0.0
0.0 0.0 0.0 0.0 0.0 0.0 0.0 0.0
0.0 0.0 0.0 0.0 0.0 0.0 0.0 0.0
0.0 0.0 0.0 0.0 0.0 0.0 0.0 0.0
0.0 0.0 0.0 0.0 0.0 0.0 0.0 0.0
0.0 0.0 0.0 0.0 0.0 0.0 0.0 0.0
0.0 0.0 0.0 0.0 0.0 0.0 0.0 0.0
0.0 0.0 0.0 0.0 0.0 0.0 0.0 0.0
0.0 0.0 0.0 0.0 0.0 0.0 0.0 0.0
0.0 0.0 0.0 0.0 0.0 0.0 0.0 0.0
0.0 0.0 0.0 0.0 0.0 0.0 0.0 0.0
0.0 0.0 0.0 0.0 0.0 0.0 0.0 0.0
0.0 0.0 0.0 0.0 0.0 0.0 0.0 0.0
0.0 0.0 0.0 0.0 0.0 0.0 0.0 0.0
0.0 0.0 0.0 0.0 0.0 0.0 0.0 0.0
0.0 0.0 0.0 0.0 0.0 0.0 0.0 0.0
0.0 0.0 0.0 0.0 0.0 0.0 0.0 0.0
0.0 0.0 0.0 0.0 0.0 0.0 0.0 0.0
0.0 0.0 0.0 0.0 0.0 0.0 0.0 0.0
0.0 0.0 0.0 0.0 0.0 0.0 0.0 0.0
0.0 0.0 0.0 0.0 0.0 0.0 0.0 0.0
0.0 0.0 0.0 0.0 0.0 0.0 0.0 0.0
0.0 0.0 0.0 0.0 0.0 0.0 0.0 0.0
0.0 0.0 0.0 0.0 0.0 0.0 0.0 0.0
0.0 0.0 0.0 0.0 0.0 0.0 0.0 0.0
0.0 0.0 0.0 0.0 0.0 0.0 0.0 0.0
0.0 0.0 0.0 0.0 0.0 0.0 0.0 0.0
0.0 0.0 0.0 0.0 0.0 0.0 0.0 0.0
0.0 0.0 0.0 0.0 0.0 0.0 0.0 0.0
0.0 0.0 0.0 0.0 0.0 0.0 0.0 0.0
0.0 0.0 0.0 0.0 0.0 0.0 0.0 0.0
00000000: 0000 0000 0000 0000 0000 0000 0000 0000
00000010: 0000 0000 0000 0000 0000 0000 0000 0000
00000020: 0000 0000 0000 0000 0000 0000 0000 0000
00000030: 0000 0000 0000 0000 0000 0000 0000 0000
00000040: 0000 0000 0000 0000 0000 0000 0000 0000
00000050: 0000 0000 0000 0000 0000 0000 0000 0000
00000060: 0000 0000 0000 0000 0000 0000 0000 0000
00000070: 0000 0000 0000 0000 0000 0000 0000 0000
00000080: 0000 0000 0000 0000 0000 0000 0000 0000
00000090: 0000 0000 0000 0000 0000 0000 0000 0000
000000a0: 0000 0000 0000 0000 0000 0000 0000 0000
000000b0: 0000 0000 0000 0000 0000 0000 0000 0000
000000c0: 0000 0000 0000 0000 0000 0000 0000 0000
000000d0: 0000 0000 0000 0000 0000 0000 0000 0000
000000e0: 0000 0000 0000 0000 0000 0000 0000 0000
000000f0: 0000 0000 0000 0000 0000 0000 0000 0000
00000100: 0000 0000 0000 0000 0000 0000 0000 0000
00000110: 0000 0000 0000 0000 0000 0000 0000 0000
00000120: 0000 0000 0000 0000 0000 0000 0000 0000
00000130: 0000 0000 0000 0000 0000 0000 0000 0000
00000140: 0000 0000 0000 0000 0000 0000 0000 0000
00000150: 0000 0000 0000 0000 0000 0000 0000 0000
00000160: 0000 0000 0000 0000 0000 0000 0000 0000
00000170: 0000 0000 0000 0000 0000 0000 0000 0000
00000180: 0000 0000 0000 0000 0000 0000 0000 0000
00000190: 0000 0000 0000 0000 0000 0000 0000 0000
000001a0: 0000 0000 0000 0000 0000 0000 0000 0000
000001b0: 0000 0000 0000 0000 0000 0000 0000 0000
000001c0: 0000 0000 0000 0000 0000 0000 0000 0000
000001d0: 0000 0000 0000 0000 0000 0000 0000 0000
000001e0: 0000 0000 0000 0000 0000 0000 0000 0000
000001f0: 0000 0000 0000 0000 0000 0000 0000 0000
00000200: 0000 0000 0000 0000 0000 0000 0000 0000
00000210: 0000 0000 0000 0000 0000 0000 0000 0000
00000220: 0000 0000 0000 0000 0000 0000 0000 0000
00000230: 0000 0000 0000 0000 0000 0000 0000 0000
00000240: 0000 0000 0000 0000 0000 0000 0000 0000
00000250: 0000 0000 0000 0000 0000 0000 0000 0000
00000260: 0000 0000 0000 0000 0000 0000 0000 0000
00000270: 0000 0000 0000 0000 0000 0000 0000 0000
00000280: 0000 0000 0000 0000 0000 0000 0000 0000
00000290: 0000 0000 0000 0000 0000 0000 0000 0000
000002a0: 0000 0000 0000 0000 0000 0000 0000 0000
000002b0: 0000 0000 0000 0000 0000 0000 0000 0000
000002c0: 0000 0000 0000 0000 0000 0000 0000 0000
000002d0: 0000 0000 0000 0000 0000 0000 0000 0000
000002e0: 0000 0000 0000 0000 0000 0000 0000 0000
000002f0: 0000 0000 0000 0000 0000 0000 0000 0000
00000300: 0000 0000 0000 0000 0000 0000 0000 0000
00000310: 0000 0000 0000 0000 0000 0000 0000 0000
00000320: 0000 0000 0000 0000 0000 0000 0000 0000
00000330: 0000 0000 0000 0000 0000 0000 0000 0000
00000340: 0000 0000 0000 0000 0000 0000 0000 0000
00000350: 0000 0000 0000 0000 0000 0000 0000 0000
00000360: 0000 0000 0000 0000 0000 0000 0000 0000
00000370: 0000 0000 0000 0000 0000 0000 0000 0000
00000380: 0000 0000 0000 0000 0000 0000 0000 0000
00000390: 0000 0000 0000 0000 0000 0000 0000 0000
000003a0: 0000 0000 0000 0000 0000 0000 0000 0000
000003b0: 0000 0000 0000 0000 0000 0000 0000 0000
000003c0: 0000 0000 0000 0000 0000 0000 0000 0000
000003d0: 0000 0000 0000 0000 0000 0000 0000 0000
000003e0: 0000 0000 0000 0000 0000 0000 0000 0000
000003f0: 0000 0000 0000 0000 0000 0000 0000 0000

sequential/dense/MatMul i1 [64, 128] scale=0.0045036143 zero_point=0
0.06755421 0.027021686 -0.009007229 -0.09007229 0.20716625 0.11259036 0.0045036143 0.18464819
0.10358313 0.38731083 0.013510843 -0.0945759 -0.07656144 -0.10358313 -0.10358313 0.20266265
-0.13510843 0.1261012 0.05404337 -0.15312289 -0.18014458 0.04053253 -0.013510843 0.1261012
0.12159759 -0.3783036 -0.24319518 0.22518072 -0.16213012 -0.12159759 -0.13510843 0.0045036143
0.13961205 0.17564096 -0.13060482 0.26120964 0.24769878 0.085568674 -0.14861926 -0.0045036143
0.05404337 0.15312289 0.058546986 -0.15312289 -0.045036145 0.33326745 -0.29723853 0.27472046
-0.18464819 -0.022518072 -0.08106506 -0.13510843 0.23869155 -0.10358313 0.16663373 0.256706
-0.2837277 -0.38731083 0.11709397 -0.09907951 0.13510843 0.04053253 0.12159759 0.018014457
-0.2837277 -0.085568674 0.17564096 0.0 -0.0045036143 0.23418795 -0.29723853 0.036028914
-0.07656144 0.058546986 -0.027021686 0.26571324 0.07656144 -0.17564096 -0.07656144 0.022518072
0.049539756 -0.04053253 -0.32876384 -0.0045036143 -0.027021686 -0.23418795 -0.08106506 0.1891518
0.036028914 0.2792241 -0.0945759 0.315253 0.10808674 -0.14861926 -0.20716625 -0.027021686
-0.05404337 -0.19365542 -0.256706 0.085568674 0.2837277 0.19365542 0.22518072 -0.1261012
-0.04053253 -0.32876384 -0.11259036 0.018014457 0.0045036143 -0.049539756 -0.14861926 0.15312289
-0.045036145 0.2837277 -0.013510843 0.11709397 0.11709397 0.0630506 0.0 -0.16213012
-0.13510843 0.11259036 -0.13060482 0.05404337 0.3783036 0.0945759 0.38280722 0.22968432
-0.022518072 0.0315253 -0.13510843 0.045036145 0.009007229 -0.013510843 -0.1576265 0.0315253
0.09007229 -0.22968432 0.06755421 0.21166988 0.22968432 0.027021686 -0.10808674 0.045036145
0.049539756 0.30624577 0.1891518 0.18464819 0.14861926 0.12159759 -0.18014458 -0.2206771
-0.13961205 0.049539756 0.12159759 -0.15312289 0.022518072 -0.15312289 -0.009007229 -0.16213012
-0.06755421 -0.085568674 -0.12159759 -0.17113735 0.036028914 0.38280722 0.18464819 -0.018014457
0.18464819 0.13060482 0.09907951 0.045036145 0.15312289 -0.22968432 -0.022518072 0.09907951
-0.2837277 -0.27021685 -0.29273492 -0.20716625 -0.07205783 -0.1261012 -0.045036145 0.085568674
-0.17564096 -0.14411566 -0.045036145 -0.022518072 -0.0045036143 -0.04053253 0.21617348 -0.0945759
-0.17564096 0.36028916 -0.23418795 -0.0630506 -0.0315253 0.0 -0.13060482 -0.19815902
0.0315253 0.07656144 -0.10358313 0.18014458 0.027021686 -0.0630506 -0.0315253 0.013510843
0.07656144 0.10358313 0.20266265 0.049539756 0.49089396 0.0045036143 0.0315253 -0.0045036143
-0.24319518 -0.1576265 -0.17564096 -0.0045036143 -0.018014457 -0.09007229 0.13961205 -0.22518072
0.0045036143 -0.15312289 -0.16663373 -0.27472046 -0.05404337 0.32876384 -0.058546986 -0.15312289
0.27021685 0.18464819 0.018014457 -0.05404337 -0.24769878 -0.22968432 0.21617348 -0.022518072
0.10808674 -0.009007229 -0.30624577 0.26120964 0.14411566 -0.049539756 0.20266265 0.24769878
-0.2206771 0.21166988 -0.13961205 0.036028914 -0.2522024 0.07656144 0.23418795 0.07205783
00000000: 0f06 feec 2e19 0129 1756 03eb efe9 e92d
00000010: e21c 0cde d809 fd1c 1bac ca32 dce5 e201
00000020: 1f27 e33a 3713 dfff 0c22 0dde f64a be3d
00000030: d7fb eee2 35e9 2539 c1aa 1aea 1e09 1b04
00000040: c1ed 2700 ff34 be08 ef0d fa3b 11d9 ef05
00000050: 0bf7 b7ff facc ee2a 083e eb46 18df d2fa
00000060: f4d5 c713 3f2b 32e4 f7b7 e704 01f5 df22
00000070: f63f fd1a 1a0e 00dc e219 e30c 5415 5533
00000080: fb07 e20a 02fd dd07 14cd 0f2f 3306 e80a
00000090: 0b44 2a29 211b d8cf e10b 1bde 05de fedc
000000a0: f1ed e5da 0855 29fc 291d 160a 22cd fb16
000000b0: c1c4 bfd2 f0e4 f613 d9e0 f6fb fff7 30eb
000000c0: d950 ccf2 f900 e3d4 0711 e928 06f2 f903
000000d0: 1117 2d0b 6d01 07ff cadd d9ff fcec 1fce
000000e0: 01de dbc3 f449 f3de 3c29 04f4 c9cd 30fb
000000f0: 18fe bc3a 20f5 2d37 cf2f e108 c811 3410

sequential/dense_1/MatMul i1 [47, 64] scale=0.0071358224 zero_point=0
0.05708658 0.26402542 0.049950756 -0.07849405 -0.0642224 0.042814933 0.0071358224 0.19980302
-0.107037336 0.23548214 0.29970455 -0.1926672 0.107037336 0.13558063 0.14985228 0.2212105
-0.02854329 -0.049950756 0.27829707 0.071358226 -0.049950756 0.2568896 0.09276569 -0.071358226
-0.049950756 0.14985228 -0.021407466 -0.1284448 0.24261796 -0.014271645 0.021407466 0.07849405
0.1569881 -0.11417316 -0.085629866 0.09276569 -0.14985228 -0.02854329 0.24261796 0.16412392
0.12130898 -0.042814933 0.17125973 0.14985228 0.18553138 -0.042814933 -0.14271645 0.13558063
0.05708658 -0.071358226 0.035679113 -0.0642224 -0.14271645 0.19980302 0.19980302 0.071358226
-0.07849405 0.1284448 0.1926672 0.021407466 0.24975379 -0.0642224 0.035679113 -0.14271645
0.321112 -0.44955683 0.18553138 0.11417316 -0.2212105 -0.1569881 0.4067419 0.042814933
-0.049950756 -0.17125973 -0.2925687 -0.2568896 -0.1569881 -0.021407466 0.09276569 -0.20693885
-0.17839555 -0.36392695 0.2854329 -0.4067419 -0.1926672 -0.049950756 0.17125973 -0.7492614
0.24975379 -0.5066434 0.014271645 0.107037336 0.09990151 -0.39247024 -0.14985228 -0.5780016
-0.29970455 0.042814933 0.1569881 -0.16412392 -0.3567911 0.0 -0.3567911 0.0
-0.45669264 -0.13558063 -0.19980302 0.19980302 -0.30684036 0.107037336 0.22834632 0.0
-0.42814934 0.20693885 -0.13558063 -0.22834632 -0.16412392 -0.1284448 -0.23548214 -0.321112
0.0071358224 0.107037336 0.021407466 0.39247024 -0.2212105 -0.20693885 0.1284448 0.27116126
-0.2568896 -0.26402542 -0.19980302 0.09990151 -0.09990151 -0.32824785 0.071358226 0.014271645
0.0071358224 -0.035679113 0.17839555 -0.24261796 0.09276569 -0.30684036 -0.321112 -0.27116126
-0.43528518 0.32824785 -0.27116126 -0.3139762 -0.321112 0.22834632 0.2212105 -0.39247024
-0.47096428 0.049950756 -0.07849405 0.05708658 0.035679113 0.20693885 0.0642224 0.071358226
-0.1284448 -0.18553138 -0.44955683 -0.34251946 -0.33538365 0.4138777 0.049950756 -0.24975379
-0.1284448 -0.17839555 -0.442421 0.3139762 -0.09276569 -0.44955683 0.035679113 0.21407467
0.107037336 -0.3567911 -0.45669264 0.0071358224 -0.34251946 -0.321112 -0.32824785 0.11417316
0.1284448 -0.2854329 0.20693885 0.035679113 0.14985228 -0.085629866 -0.49237174 0.3781986
0.321112 0.035679113 -0.14271645 0.02854329 -0.36392695 -0.44955683 -0.24261796 -0.09276569
-0.48523593 0.1284448 -0.071358226 0.085629866 -0.34251946 0.1569881 0.321112 0.1284448
0.3139762 -0.18553138 -0.19980302 0.085629866 -0.14985228 -0.1284448 -0.37106276 0.021407466
0.09276569 -0.07849405 0.049950756 -0.48523593 0.32824785 -0.19980302 -0.035679113 -0.33538365
-0.17125973 -0.0071358224 0.14985228 0.2925687 0.0 -0.24975379 0.09990151 -0.33538365
-0.43528518 0.16412392 0.09990151 -0.14985228 -0.09990151 -0.014271645 -0.07849405 -0.05708658
-0.1569881 0.20693885 -0.07849405 0.049950756 -0.1284448 -0.3567911 -0.09990151 -0.26402542
0.085629866 -0.33538365 -0.0071358224 0.0071358224 -0.14271645 -0.22834632 -0.049950756 -0.071358226
00000000: 0825 07f5 f706 011c f121 2ae5 0f13 151f
00000010: fcf9 270a f924 0df6 f915 fdee 22fe 030b
00000020: 16f0 f40d ebfc 2217 11fa 1815 1afa ec13
00000030: 08f6 05f7 ec1c 1c0a f512 1b03 23f7 05ec
00000040: 2dc1 1a10 e1ea 3906 f9e8 d7dc eafd 0de3
00000050: e7cd 28c7 e5f9 1897 23b9 020f 0ec9 ebaf
00000060: d606 16e9 ce00 ce00 c0ed e41c d50f 2000
00000070: c41d ede0 e9ee dfd3 010f 0337 e1e3 1226
00000080: dcdb e40e f2d2 0a02 01fb 19de 0dd5 d3da
00000090: c32e dad4 d320 1fc9 be07 f508 051d 090a
000000a0: eee6 c1d0 d13a 07dd eee7 c22c f3c1 051e
000000b0: 0fce c001 d0d3 d210 12d8 1d05 15f4 bb35
000000c0: 2d05 ec04 cdc1 def3 bc12 f60c d016 2d12
000000d0: 2ce6 e40c ebee cc03 0df5 07bc 2ee4 fbd1
000000e0: e8ff 1529 00dd 0ed1 c317 0eeb f2fe f5f8
000000f0: ea1d f507 eece f2db 0cd1 ff01 ece0 f9f6

lstm/lstm_cell_3/bias1 f4 [512]
0.12820949 0.08031202 0.003851836 0.19382466 0.07645979 0.006459594 0.06013525 0.11787589
0.11051147 0.08241227 0.18561198 -0.0062341983 0.10528076 0.016417252 0.06988641 0.04659642
-0.013644214 0.08666006 0.12977295 0.07419307 -0.011078772 -0.031449616 0.0118238535 0.101908155
0.032652687 0.08450275 0.069739856 -0.029676393 0.013353888 0.06436891 0.007692182 0.003984871
0.05565466 0.13835904 0.08373913 0.18087439 0.08658985 0.11442689 0.070039295 0.029027374
0.031798024 -0.037568945 0.09754898 0.05776559 0.09304826 0.13617855 0.14274646 0.06571101
0.16821495 0.046421222 0.06692269 0.055429135 0.07915542 -0.03521135 0.040456027 0.12419142
0.11241317 0.0773324 0.09328184 0.07340712 0.033948872 0.032163925 0.08694888 0.043748222
0.23689455 0.14463472 0.10650723 0.059479177 0.0968536 0.17311694 0.12770711 0.10794084
0.016799388 0.16479862 0.030685704 0.102644406 0.08374558 0.00837422 0.04646077 -0.004466286
0.025520759 0.12008691 0.07291933 0.053509034 0.05050106 0.11318042 0.005358591 0.18851389
0.13930134 0.1168547 0.012446452 -0.047889635 0.08391555 0.10510004 -0.02579496 -0.018391669
0.125942 0.0030410117 0.035303794 0.15619479 0.04983308 -0.010028172 0.05524466 0.10958529
-0.037486006 0.13956694 0.007860883 0.13651729 0.12530822 0.004773048 0.18257959 0.09769907
0.1506541 -0.00057821727 0.06272433 0.09385207 0.04236784 0.09604446 0.084370375 0.11178566
-0.010730936 0.024670914 0.09840882 0.06701762 0.06602574 0.051634554 0.091660425 0.0852052
1.0424687 1.130596 1.0192052 1.0195484 1.0573949 1.0763174 0.9744497 1.1860816
1.023456 0.96900505 1.0547395 1.087065 1.0515777 0.9947091 1.0101045 1.0521493
1.0837493 1.0336373 1.0433362 1.084163 0.93940425 0.95453286 1.0312699 1.0616257
1.0119492 0.99385685 1.0004334 0.9660619 0.9805005 0.9776067 1.0391307 0.9486483
0.9638939 1.0128736 1.0010841 1.0007809 1.0051795 1.135101 0.98304814 0.9441198
1.0642742 1.0058793 0.998905 1.0632714 1.0688442 1.0087998 1.0238682 1.0398488
1.101765 1.0691645 0.9845302 0.9947415 1.0259669 1.0284443 0.9575621 1.0018464
1.0690678 1.0115274 1.1351348 0.9879287 0.89191884 0.9439776 1.0148114 0.99895275
1.093243 1.050707 1.0672007 1.008371 0.9983249 1.1160479 1.0465442 1.0485827
1.000743 1.0537161 1.008075 1.0208175 1.0384264 1.0119313 0.9895184 0.99662954
0.9484016 1.0845406 0.9921905 1.1612303 0.9722685 1.0300616 1.055275 1.060277
1.0427752 0.95917743 0.9649342 0.98667496 0.98383003 1.0166115 0.9595648 0.9306553
1.1251462 1.0016582 1.0519743 1.1329632 0.99065363 0.96564645 1.0193509 1.0066477
0.9242063 1.036557 0.90668803 1.0957626 0.9730033 1.009869 1.0823115 1.0302837
1.0385151 1.0926559 1.0333208 1.0303562 1.0329365 0.93242896 1.0487616 1.101788
0.9592211 0.9777225 0.98117083 0.9737123 0.9862155 1.0009537 1.0022317 0.9947098
00000000: 5949 033e a17a a43d 166f 7c3b f979 463e
00000010: f396 9c3d 00ab d33b 6150 763d ea68 f13d
00000020: d653 e23d c4c7 a83d 1111 3e3e 3f48 ccbb
00000030: 709d d73d 797d 863c 9b20 8f3d e3db 3e3d
00000040: fb8b 5fbc d47a b13d 33e3 043e 89f2 973d
00000050: bd83 35bc 50d1 00bd d6b8 413c 39b5 d03d
00000060: d3be 053d c70f ad3d c5d3 8e3d e81b f3bc
00000070: 44ca 5a3c d9d3 833d b30e fc3b 8593 823b
00000080: 24f6 633d fead 0d3e 6c7f ab3d 2337 393e
00000090: 0556 b13d a558 ea3d c370 8f3d d1ca ed3c
000000a0: a53e 023d e5e1 19bd c2c7 c73d 9c9b 6c3d
000000b0: 1690 be3d 6472 0b3e 212c 123e 7e93 863d
000000c0: 8a40 2c3e 2e24 3e3d c30e 893d a909 633d
000000d0: 3d1c a23d c739 10bd 38b5 253d 1258 fe3d
000000e0: e038 e63d 7360 9e3d 8d0a bf3d 7956 963d
000000f0: f90d 0b3d 52be 033d 4112 b23d 5631 333d
00000100: 7c94 723e 201b 143e 7620 da3d 70a0 733d
00000110: 2e5b c63d 9145 313e a7c5 023e 1610 dd3d
00000120: df9e 893c f8c0 283e 9660 fb3c 3b37 d23d
00000130: cd82 ab3d 0634 093c a64d 3e3d ec59 92bb
00000140: e910 d13c 20f0 f53d bb56 953d 4a2c 5b3d
00000150: 33da 4e3d 23cb e73d 1f97 af3b c909 413e
00000160: 03a5 0e3e 8451 ef3d 34ec 4b3c ec27 44bd
00000170: eadb ab3d b13e d73d f44f d3bc 20aa 96bc
00000180: f1f6 003e b64b 473b b69a 103d 87f1 1f3e
00000190: c61d 4c3d 344d 24bc 3948 623d 416e e03d
000001a0: ed8a 19bd a3ea 0e3e efca 003c 30cb 0b3e
000001b0: cc50 003e 3b67 9c3b 25f6 3a3e 7316 c83d
000001c0: 1245 1a3e 8193 17ba 9d75 803d 8435 c03d
000001d0: e689 2d3d f5b2 c43d 60ca ac3d e1ef e43d
000001e0: cfd0 2fbc a81a ca3c 908a c93d 8940 893d
000001f0: 8138 873d c17e 533d 76b8 bb3d 1080 ae3d
00000200: 9d6f 853f 5fb7 903f 5175 823f 9080 823f
00000210: b758 873f c5c4 893f 8975 793f 86d1 973f
00000220: 9b00 833f b710 783f b401 873f f224 8b3f
00000230: 199a 863f 41a5 7e3f 1b4b 813f d4ac 863f
00000240: 4cb8 8a3f 3a4e 843f 0a8c 853f dac5 8a3f
00000250: cc7c 703f 445c 743f a700 843f 5ae3 873f
00000260: 8d87 813f 676d 7e3f 340e 803f d54f 773f
00000270: 1502 7b3f 6f44 7a3f 3c02 853f 9dda 723f
00000280: c0c1 763f d8a5 813f 8623 803f 9719 803f
00000290: b9a9 803f fd4a 913f 0ba9 7b3f d6b1 713f
000002a0: 233a 883f a7c0 803f 3db8 7f3f 4719 883f
000002b0: e3cf 883f 5a20 813f 1d0e 833f c419 853f
000002c0: a306 8d3f 62da 883f 2c0a 7c3f 61a7 7e3f
000002d0: e252 833f 10a4 833f ca22 753f 813c 803f
000002e0: 37d7 883f bb79 813f 194c 913f e5e8 7c3f
000002f0: cb54 643f 84a8 713f 57e5 813f 5ebb 7f3f
00000300: 63ef 8b3f 917d 863f 089a 883f 4d12 813f
00000310: 3892 7f3f a8da 8e3f 29f5 853f f537 863f
00000320: 5918 803f 2be0 863f 9a08 813f 26aa 823f
00000330: 28eb 843f f786 813f 1451 7d3f 1d23 7f3f
00000340: 72ca 723f 3ad2 8a3f 3200 7e3f 32a3 943f
00000350: 97e6 783f 0fd9 833f 4013 873f 28b7 873f
00000360: a879 853f a78c 753f ed05 773f bb96 7c3f
00000370: 49dc 7b3f 5320 823f 0aa6 753f 6d3f 6e3f
00000380: ca04 903f 5636 803f 18a7 863f f004 913f
00000390: 7a9b 7d3f 9b34 773f 177a 823f d5d9 803f
000003a0: c998 6c3f e6ad 843f b51c 683f f341 8c3f
000003b0: bf16 793f 6343 813f 2f89 8a3f 56e0 833f
000003c0: 10ee 843f 26dc 8b3f db43 843f b6e2 833f
000003d0: 4337 843f aab3 6e3f d23d 863f 6407 8d3f
000003e0: 848f 753f 064c 7a3f 032e 7b3f 3645 793f
000003f0: 9e78 7c3f 401f 803f 2149 803f 4da5 7e3f

while/MatMul_1 i1 [512, 128] scale=0.0050048456 zero_point=0
-0.16515991 0.22521806 0.010009691 -0.12512115 -0.18017444 -0.010009691 -0.2302229 -0.07006784
0.0050048456 0.015014537 -0.06506299 -0.16515991 0.025024228 -0.17016475 0.15014537 0.095092066
-0.20519868 -0.0050048456 -0.020019382 0.10510176 -0.12512115 0.13513082 -0.20519868 -0.0550533
-0.07006784 -0.03503392 -0.060058147 0.040038764 0.025024228 0.015014537 -0.27026165 -0.0550533
0.060058147 0.14514053 0.15014537 0.015014537 0.030029073 0.07006784 -0.08007753 0.08007753
0.03503392 -0.050048456 0.19518897 0.060058147 0.19018413 -0.08007753 0.0050048456 0.030029073
0.14514053 -0.04504361 0.040038764 -0.12011629 0.07006784 -0.03503392 0.15014537 0.095092066
-0.11511145 -0.11511145 0.13012598 -0.29028106 0.14514053 -0.07507268 0.060058147 0.2502423
-0.050048456 -0.015014537 -0.14514053 -0.040038764 0.040038764 0.3052956 -0.020019382 0.13012598
-0.06506299 -0.095092066 -0.17516959 0.10009691 0.025024228 -0.07507268 0.08007753 -0.04504361
-0.020019382 0.1551502 0.26025197 0.22521806 -0.12512115 0.12512115 -0.03503392 0.015014537
-0.04504361 0.010009691 0.060058147 0.12011629 0.16515991 -0.16015506 -0.13012598 0.0050048456
-0.22521806 0.20519868 -0.19518897 0.1551502 0.21520835 0.1551502 0.13513082 -0.18017444
0.050048456 -0.050048456 0.08007753 0.03503392 0.10510176 -0.2502423 -0.07006784 0.0550533
-0.1551502 0.16015506 0.15014537 0.14013568 -0.095092066 -0.085082375 -0.1101066 0.31530526
0.020019382 0.11511145 -0.24523744 0.025024228 0.07507268 0.17016475 0.010009691 -0.04504361
-0.1101066 0.12512115 -0.04504361 0.13513082 0.030029073 0.16515991 -0.085082375 0.025024228
0.16015506 -0.14514053 0.12512115 -0.030029073 0.0 -0.060058147 -0.09008722 -0.11511145
0.13012598 0.095092066 0.0 -0.03503392 0.050048456 -0.095092066 -0.2302229 -0.10510176
-0.040038764 -0.29528588 -0.030029073 -0.11511145 -0.085082375 0.19018413 -0.14514053 0.06506299
-0.095092066 0.04504361 0.015014537 -0.010009691 -0.060058147 0.19018413 0.3403295 -0.1101066
-0.06506299 0.09008722 0.26025197 0.12011629 0.14514053 0.015014537 0.09008722 -0.08007753
0.085082375 -0.16015506 -0.0550533 -0.24523744 -0.1101066 0.010009691 -0.07507268 0.13012598
0.010009691 -0.13513082 0.060058147 -0.060058147 0.12512115 0.0550533 -0.16515991 -0.04504361
0.03503392 -0.0050048456 -0.18017444 -0.11511145 -0.46545064 -0.020019382 -0.030029073 -0.020019382
-0.085082375 -0.03503392 -0.13012598 -0.095092066 -0.015014537 -0.13012598 0.08007753 -0.13513082
-0.12011629 0.13012598 0.29028106 0.050048456 0.015014537 0.16515991 -0.18017444 -0.11511145
-0.0050048456 0.2502423 -0.020019382 0.17016475 0.1551502 -0.03503392 0.12512115 0.10510176
0.13012598 -0.0050048456 -0.095092066 -0.025024228 0.010009691 0.13012598 0.13012598 -0.13012598
-0.04504361 0.1851793 0.020019382 0.020019382 0.08007753 -0.095092066 0.19018413 -0.07006784
-0.16515991 0.09008722 0.050048456 -0.09008722 0.060058147 0.0050048456 -0.010009691 0.17016475
0.06506299 -0.085082375 0.095092066 -0.29028106 -0.010009691 -0.11511145 -0.13513082 -0.14514053
00000000: df2d 02e7 dcfe d2f2 0103 f3df 05de 1e13
00000010: d7ff fc15 e71b d7f5 f2f9 f408 0503 caf5
00000020: 0c1d 1e03 060e f010 07f6 270c 26f0 0106
00000030: 1df7 08e8 0ef9 1e13 e9e9 1ac6 1df1 0c32
00000040: f6fd e3f8 083d fc1a f3ed dd14 05f1 10f7
00000050: fc1f 342d e719 f903 f702 0c18 21e0 e601
00000060: d329 d91f 2b1f 1bdc 0af6 1007 15ce f20b
00000070: e120 1e1c edef ea3f 0417 cf05 0f22 02f7
00000080: ea19 f71b 0621 ef05 20e3 19fa 00f4 eee9
00000090: 1a13 00f9 0aed d2eb f8c5 fae9 ef26 e30d
000000a0: ed09 03fe f426 44ea f312 3418 1d03 12f0
000000b0: 11e0 f5cf ea02 f11a 02e5 0cf4 190b dff7
000000c0: 07ff dce9 a3fc fafc eff9 e6ed fde6 10e5
000000d0: e81a 3a0a 0321 dce9 ff32 fc22 1ff9 1915
000000e0: 1aff edfb 021a 1ae6 f725 0404 10ed 26f2
000000f0: df12 0aee 0c01 fe22 0def 13c6 fee9 e5e3

while/MatMul i1 [512, 21] scale=0.0049513127 zero_point=0
0.049513128 -0.26737088 -0.099026255 -0.16834463 -0.08912363 0.03465919 0.12378281 -0.009902625
0.09407494 -0.1931012 -0.06931838 -0.158442 -0.13863675 0.06436706 0.0396105 -0.0396105
-0.21785776 0.03465919 -0.18814988 0.16339332 -0.15349069 0.13863675 0.26241958 0.2723222
0.3020301 0.029707875 0.113880195 0.15349069 -0.06436706 0.15349069 -0.0396105 0.10892888
0.237663 0.0049513127 0.029707875 0.24756563 0.05941575 0.12378281 -0.044561815 -0.10892888
-0.0396105 -0.113880195 0.1188315 -0.158442 0.03465919 -0.06931838 -0.13863675 -0.01980525
-0.084172316 0.009902625 -0.14358807 0.044561815 -0.24261431 -0.09407494 -0.07426969 -0.3614458
-0.10397757 -0.21290645 -0.2723222 0.20795514 0.0 -0.21785776 0.009902625 -0.084172316
0.06436706 -0.024756564 0.16834463 -0.14853938 -0.09407494 0.084172316 -0.06436706 -0.19805251
0.113880195 -0.014853938 -0.10397757 0.09407494 0.029707875 0.049513128 -0.06436706 -0.024756564
0.099026255 -0.09407494 0.12378281 0.014853938 0.014853938 0.044561815 0.22776039 0.113880195
0.0049513127 -0.0049513127 0.14853938 0.10397757 -0.0049513127 0.2327117 0.06931838 0.05446444
0.22776039 -0.0396105 0.13368544 0.19805251 0.079221 0.084172316 0.15349069 0.21290645
-0.08912363 0.14853938 -0.158442 0.14853938 0.13863675 -0.01980525 0.14853938 0.17824726
0.20795514 0.06931838 0.2723222 0.19805251 0.158442 0.14358807 -0.07426969 -0.12378281
0.16339332 -0.13863675 0.158442 -0.03465919 0.029707875 0.084172316 -0.03465919 0.06931838
-0.079221 0.0049513127 0.099026255 0.06436706 0.33173794 -0.049513128 0.13368544 0.24756563
0.0396105 -0.014853938 -0.03465919 -0.0049513127 0.099026255 0.113880195 -0.06931838 0.24261431
0.113880195 -0.05446444 0.113880195 0.36639714 0.21785776 0.26241958 0.12378281 0.113880195
-0.029707875 0.113880195 0.14358807 0.12873413 0.10397757 0.05446444 0.13863675 0.13368544
-0.07426969 0.2723222 -0.079221 0.0049513127 -0.0049513127 -0.029707875 0.01980525 -0.14853938
-0.158442 -0.1188315 0.06436706 0.084172316 -0.03465919 -0.3119327 -0.05446444 0.15349069
-0.099026255 -0.15349069 -0.01980525 0.05446444 0.06931838 0.029707875 -0.13863675 -0.07426969
-0.24756563 -0.099026255 -0.029707875 0.024756564 0.0 0.12378281 0.079221 0.44066682
0.0396105 0.01980525 0.15349069 -0.10892888 -0.12873413 0.2327117 -0.16834463 -0.014853938
0.12873413 -0.19805251 -0.05941575 0.237663 0.15349069 0.084172316 -0.06436706 0.13863675
0.0049513127 0.158442 0.21290645 0.16834463 0.05941575 0.10397757 0.15349069 -0.10892888
0.34164056 0.0 -0.09407494 0.14853938 -0.0396105 -0.0396105 0.024756564 0.024756564
-0.09407494 0.2772735 -0.0049513127 0.07426969 -0.08912363 -0.024756564 -0.17329594 0.14853938
0.21290645 0.40600765 0.084172316 0.17329594 0.29212746 0.10892888 0.12873413 -0.05446444
-0.12873413 -0.1931012 0.12873413 -0.10892888 0.1188315 0.03465919 -0.024756564 0.06436706
0.1188315 0.014853938 0.39610502 0.12873413 -0.18319857 -0.10397757 -0.084172316 0.12873413
00000000: 0aca ecde ee07 19fe 13d9 f2e0 e40d 08f8
00000010: d407 da21 e11c 3537 3d06 171f f31f f816
00000020: 3001 0632 0c19 f7ea f8e9 18e0 07f2 e4fc
00000030: ef02 e309 cfed f1b7 ebd5 c92a 00d4 02ef
00000040: 0dfb 22e2 ed11 f3d8 17fd eb13 060a f3fb
00000050: 14ed 1903 0309 2e17 01ff 1e15 ff2f 0e0b
00000060: 2ef8 1b28 1011 1f2b ee1e e01e 1cfc 1e24
00000070: 2a0e 3728 201d f1e7 21e4 20f9 0611 f90e
00000080: f001 140d 43f6 1b32 08fd f9ff 1417 f231
00000090: 17f5 174a 2c35 1917 fa17 1d1a 150b 1c1b
000000a0: f137 f001 fffa 04e2 e0e8 0d11 f9c1 f51f
000000b0: ece1 fc0b 0e06 e4f1 ceec fa05 0019 1059
000000c0: 0804 1fea e62f defd 1ad8 f430 1f11 f31c
000000d0: 0120 2b22 0c15 1fea 4500 ed1e f8f8 0505
000000e0: ed38 ff0f eefb dd1e 2b52 1123 3b16 1af5
000000f0: e6d9 1aea 1807 fb0d 1803 501a dbeb ef1a
